model.pth (torch, 17216 bytes, 4 tensors)

linear1.weight f4 [256, 11]
000000 59 11 81 3d c4 86 0a 3f 89 16 0a 3d 31 bc d8 3d
       0.06302137 0.54111886 0.033712897 0.1058277
000010 28 de 0e be 74 b8 5c 3d dd cf 18 be a8 3b 58 be
       -0.13951933 0.053886846 -0.14923044 -0.21116507
000020 83 fe 4f 3e 36 04 b2 3d d1 00 a4 3e bf cb be bd
       0.20311932 0.086922094 0.32031873 -0.09316205
000030 ac 9e 3b be 4e 57 05 3f 8c 0e a1 3e 00 65 58 3d
       -0.18322247 0.5208634 0.3145641 0.052830696
000040 43 fb a5 bd 2c 32 00 3e 68 d8 af be 63 c7 53 be
       -0.08104565 0.12519139 -0.34344792 -0.20681529
000050 60 c1 64 3d ab db 48 3e 6b c8 ca 3d 27 b1 93 3e
       0.05584848 0.19615047 0.09901508 0.28846094
000060 1a d1 ca 3d 48 ea 50 be 2d bb 0e 3e fd 92 7e 3c
       0.09903164 -0.20401871 0.1393859 0.015537974
000070 e4 05 2d 3e 26 e1 9a be 0a d4 8b bc 24 a6 06 be
       0.16896778 -0.302499 -0.017068882 -0.13149315
000080 d0 28 41 be cf af 09 bd 7c 4c a6 bb 35 a9 19 be
       -0.18863225 -0.03361493 -0.0050750356 -0.15005954
000090 e4 df 20 3e e3 05 af bd be e3 bd 3d b6 6c 50 be
       0.15710407 -0.08546045 0.09271954 -0.2035397
0000a0 32 56 3a 3d 43 cc 1b 3d 9d 61 05 bc e1 25 1d be
       0.04549236 0.038036596 -0.008140949 -0.15346481
0000b0 10 ac 89 bd b4 d0 65 be b6 b4 c4 3e e2 05 6a 3d
       -0.067222714 -0.22442895 0.38419122 0.057134517
0000c0 4e a2 4b 3e 38 79 01 3e d3 8a e2 3d c3 74 8d 3d
       0.19886133 0.12643898 0.11061635 0.06907036
0000d0 f3 09 83 3c 4b 20 88 3e 7f 97 8b 3e 15 44 24 3e
       0.015995955 0.26587138 0.2726402 0.16041596
0000e0 87 e7 18 bd 55 58 b9 bc b8 4b 9d 3a 2a b6 a3 bd
       -0.037330177 -0.022625128 0.0012000715 -0.079937294
0000f0 15 03 8c bb 2a e9 0d 3e e7 ad b1 3e d2 d0 a1 3d
       -0.0042728283 0.13858476 0.3470299 0.079011574
000100 54 5c 4c bc 69 45 3b 3e e5 9d 15 3f f5 cb bf bd
       -0.012473185 0.18288197 0.5844405 -0.093650736
000110 14 ea 17 bd 68 d6 db bd 1c 3a 5d bd 9c 6b 63 3e
       -0.03708847 -0.10734254 -0.054010496 0.22209018
000120 b9 95 5e 3e ad 72 61 3e 73 51 72 3e a0 9a c3 3b
       0.21736802 0.22016402 0.23663883 0.0059693605
000130 20 97 21 bd 13 c2 bf be 04 2a a7 3e 58 16 23 3e
       -0.039450765 -0.37452754 0.32649243 0.15926492
000140 9c 1f 93 be 1e a1 a0 3d 37 35 ae bd 12 a3 37 3e
       -0.28735054 0.07843231 -0.08506244 0.179333
000150 f6 65 92 3d ba 3d 68 3e a7 4f 5b 3e 34 63 35 3e
       0.07148354 0.22679797 0.21417104 0.17713624
000160 82 60 f7 bb 97 a1 f3 3d e8 1d 54 3e 12 01 50 be
       -0.0075493464 0.11896055 0.20714533 -0.20312908
000170 ea 4a 3a 3e d9 3f 5e be 86 0b a2 3e 20 b2 b9 be
       0.1819264 -0.21704043 0.31649417 -0.3626871
000180 7a c0 82 be 30 d5 8a be 74 e7 8b 3e ed e5 f2 3e
       -0.25537473 -0.27115774 0.27325022 0.47441044
000190 d6 d8 a0 bb da e4 cb 3d 9f aa a1 bc 75 a1 a1 3d
       -0.0049086614 0.09955759 -0.019734679 0.078921236
0001a0 bb 7f 5d be d8 a7 8e be 8b 97 f6 bd 81 da 0f 3e
       -0.21630757 -0.2786243 -0.12040623 0.14048196
0001b0 ea 61 ce 3e 90 8e fc 3d 33 06 62 3e ef ed 36 3d
       0.40309078 0.12331879 0.22072677 0.044660505
0001c0 c0 ee a4 3e 59 35 21 bc 34 3e 1f be 1a fa cb bd
       0.32213402 -0.009839379 -0.15551072 -0.099598125
0001d0 50 38 60 be a0 e0 a8 3e 29 9a 66 3e 71 20 19 3e
       -0.21896482 0.32983875 0.22519745 0.14953782
0001e0 8d 0f 85 3e 9b 74 82 3e d0 4f a6 3e e9 e2 70 3d
       0.25988427 0.25479588 0.32482767 0.05881015
0001f0 c3 21 c2 bd 52 2d 9c be 5c 0d 29 3e 15 9b ae 3c
       -0.09479096 -0.30503327 0.16509002 0.021314183
000200 d9 05 b1 3d 98 13 c1 3e d6 7c 48 be 9f e9 33 3d
       0.086436935 0.3771026 -0.19578871 0.04392397
000210 15 c0 fe 3d 01 61 9d 3d 2e b2 1e be 26 ba 00 be
       0.124389805 0.07684518 -0.15497658 -0.1257101
000220 2e 95 65 3e 40 08 8b be d0 fe bc 3e 6e 5a db be
       0.22420189 -0.27154732 0.36913157 -0.4284243
000230 ae e2 43 bd 48 1b a4 be 76 8a 1e bd d5 3a b6 be
       -0.0478236 -0.32052064 -0.038706265 -0.3559176
000240 e2 3d 6c be 6d 01 f2 3e 49 9f b5 3d 3b f8 97 3e
       -0.23070481 0.47266713 0.08868272 0.29681572
000250 06 40 40 3e e0 39 28 bd 42 c4 5b 3e b8 1b 46 bc
       0.18774423 -0.04107082 0.21461585 -0.01209157
000260 83 69 8b be 96 b3 5d bd 4e 3e 86 bd 7a 13 ec 3d
       -0.27228937 -0.054126345 -0.065548524 0.11527152
000270 7c e3 7a bd 1f 89 5c be 05 e6 09 3e cd 6e 5e be
       -0.061252102 -0.21536683 0.13466652 -0.21721955
000280 d1 3b b3 be eb 0d 31 be ee 03 5b 3d f2 31 d4 3e
       -0.35006574 -0.17290466 0.053470545 0.41444355
000290 66 5b 42 be a1 cc 29 be 86 c1 4a bc b1 aa c1 bd
       -0.18980178 -0.16581966 -0.012375241 -0.09456385
0002a0 03 ba 83 be 89 36 0c be fe 54 02 3e fa 16 66 be
       -0.25727853 -0.13692679 0.12727734 -0.22469702
0002b0 86 8c b1 be 4e db 38 be 0c 36 57 3e d8 8b 0c 3c
       -0.34677523 -0.18052408 0.21016711 0.008578263
0002c0 28 9e cd 3c 2d 4a 67 be 1c b7 ea 3d 2c 24 84 3e
       0.025099829 -0.2258689 0.114607066 0.25808847
0002d0 a9 a1 7d bd ac c2 e9 bc 09 f5 ec bd 9e e6 65 be
       -0.06192175 -0.02853521 -0.11570174 -0.22451255
0002e0 9a 5f b2 bd 64 47 92 3d 10 3c c8 bd 7a b6 2f be
       -0.08709641 0.07142523 -0.09777081 -0.17159453
0002f0 af 64 12 3e 1b b9 ee bc 7e f8 38 bd e2 88 8a 3d
       0.1429622 -0.029141 -0.045158856 0.067643896
000300 7e 00 d2 be e4 86 ef 3d 1a 22 d7 3d 18 40 1a 3d
       -0.41016 0.1169565 0.10504551 0.03765878
000310 0b d8 c9 be 33 d3 2b be 23 95 77 3e 67 ab 47 be
       -0.3942264 -0.16779785 0.24177985 -0.19498979
000320 8e eb 74 3e 21 bf 85 bc af 2d a7 3e 62 cb 5e bd
       0.23917982 -0.016326489 0.3265204 -0.05439318
000330 2f 40 04 3e 73 92 3f bb 58 71 95 be 33 67 86 3e
       0.12915109 -0.0029231578 -0.29188037 0.2625061
000340 4b 84 0f be 55 d3 c1 3e 20 9e c6 3c de 18 c5 bc
       -0.1401531 0.37856546 0.024245322 -0.02405971
000350 e2 d2 bf 3d ad b3 55 3e cf f6 d9 bd ed cb 55 bd
       0.093663946 0.20869322 -0.10642778 -0.052196432
000360 6b 7b 26 3d 02 86 ea bd a8 aa 87 3e 3d f4 2a be
       0.040645044 -0.11451341 0.26497388 -0.16694732
000370 90 b9 22 be 41 4e 09 3d 0d dd 32 3e ed 62 a9 3e
       -0.15891099 0.033521894 0.17467137 0.33083287
000380 1f f0 43 3e 62 3f b7 be 86 b4 c2 be 24 1a 8a 3e
       0.19134568 -0.35790545 -0.38028353 0.2697307
000390 09 86 b5 3e 11 db a0 be 5a 12 09 bf 03 e9 94 3d
       0.35453823 -0.31417134 -0.5354363 0.07271006
0003a0 eb 08 a6 3d fd 29 d4 3e 91 2e bf bd e6 dd a9 3e
       0.0810717 0.41438285 -0.09335054 0.33177108
0003b0 53 20 57 be eb 9a e3 3d 2b 4e 3c 3e 36 7a f6 bd
       -0.21008424 0.11113533 0.18389194 -0.12035029
0003c0 63 6d c2 3e 5f 26 a8 3d 9a 8e f1 bd 74 b9 bc 3e
       0.3797408 0.08210444 -0.11794777 0.3686024
0003d0 2e e9 ae 3d 5f b4 8f be cd a8 a0 bd b0 df 38 3e
       0.08540569 -0.280673 -0.07844696 0.1805408
0003e0 e7 c7 e9 3d 2d 2c 05 bd 21 34 da be fc e5 c6 bd
       0.114150815 -0.032512832 -0.42617896 -0.09711835
0003f0 2a 49 50 3d 33 9c ce 3e fd 12 55 bd b3 1a 1d bf
       0.050851025 0.40353546 -0.05202006 -0.61368865

linear1.bias f4 [256]
000000 4c b8 32 be c7 da 9d 3d c6 d1 87 be 6b a7 a6 be
       -0.17453116 0.07707744 -0.26527232 -0.32549605
000010 19 14 7d bd 0d ba b3 3b ff 7c 4d be 2a 2e cb bd
       -0.061786745 0.0054848255 -0.20067213 -0.099209145
000020 11 2d b1 bd 21 a7 0e 3e a1 b3 90 bc d4 1e 79 bd
       -0.08651174 0.13930942 -0.017663779 -0.060820416
000030 a6 f7 3c 3e fb 90 54 bd 6a 37 5a be a8 92 cc 3c
       0.18453845 -0.051896077 -0.21310201 0.024972275
000040 f9 b2 77 bd 64 f2 95 3e 10 14 e7 bc 9f 13 fb bd
       -0.060473416 0.29286492 -0.028207809 -0.12259602
000050 ef 15 58 bd d5 16 50 be 6b 16 76 be 2a 5c a9 be
       -0.052755293 -0.2032121 -0.2403199 -0.33078128
000060 0f a9 53 bd 4a d2 65 3e f0 9d 23 3e f5 a2 31 3d
       -0.0516749 0.224435 0.15978217 0.0433683
000070 8c 33 63 bc 7b fb 4f be a7 c7 0a 3e ef db 3b 3e
       -0.01386727 -0.20310776 0.13552724 0.18345617
000080 64 97 98 be 97 ed a1 3e f0 cb b5 be fa 14 15 bd
       -0.29803002 0.3162658 -0.35507154 -0.036396958
000090 07 aa 62 3e 0f 53 49 3e 54 7b 7c 3d c3 70 4c 3c
       0.22135173 0.1966059 0.061641052 0.012478056
0000a0 20 b6 77 be 98 40 41 bd ab 89 08 be f9 40 85 3e
       -0.24190569 -0.047180742 -0.13333766 0.26026133
0000b0 27 cf 59 be b0 83 db 3d a3 bc a7 bc 11 07 ff bc
       -0.21270429 0.10718477 -0.020475691 -0.0311313
0000c0 f2 01 e3 3e c0 d0 52 3e 36 22 85 be 93 51 7b 3c
       0.44337422 0.20587444 -0.26002663 0.015339273
0000d0 b8 1d 8c 3d 33 ca 97 bd 1f a6 0e be 39 04 63 3d
       0.06841606 -0.07411613 -0.13930558 0.05542395
0000e0 1f c5 0e be c7 43 ae bd 61 40 d7 bd 47 92 ad 3d
       -0.13942383 -0.08509021 -0.10510326 0.08475166
0000f0 cf e7 43 be 17 3e 16 3c ef 78 85 be 2e 4b 0e be
       -0.19131397 0.009170077 -0.26068828 -0.13895866
000100 d6 de 26 be 53 57 25 3e 09 56 53 be 02 3e b4 be
       -0.16295943 0.16146593 -0.20638289 -0.35203558
000110 10 a9 0b 3e 27 92 11 be b9 c1 16 be 1d 9e 71 bd
       0.13638711 -0.14215909 -0.14722337 -0.05898868
000120 f2 63 84 bd d6 e7 85 be 82 87 30 3d 7b a9 60 be
       -0.064643756 -0.2615344 0.04309798 -0.21939652
000130 64 81 83 be b2 eb 40 3d 0f c8 36 3e 46 18 c8 3d
       -0.25684655 0.047099777 0.17849754 0.09770255
000140 d5 ec 91 bd c3 07 dc bd b8 4e 2c 3c a5 66 22 be
       -0.0712525 -0.10743668 0.010516815 -0.15859468
000150 ba ed 54 3c 58 94 91 be f1 d1 96 3d 9a 9e dd bd
       0.012996132 -0.2843349 0.07364262 -0.108212665
000160 51 b5 1e be 68 b2 8d ba 2a 3c 1d 3d 89 7b 8b be
       -0.15498854 -0.0010810615 0.038387455 -0.27242687
000170 7b 04 15 3e df a9 13 be 2b c0 8b be 4b 59 58 3c
       0.1455249 -0.1442027 -0.2729505 0.013204883
000180 e0 56 95 bd 24 02 68 be c9 41 d4 3c b3 ac a8 be
       -0.07291961 -0.22657067 0.025910275 -0.3294426
000190 80 4b ff bc 42 06 49 3d 5a 45 29 3e c0 25 1b 3e
       -0.03116393 0.049078234 0.16530362 0.15151119
0001a0 99 af bc bd 8c 99 65 bd 21 a6 9e be 8b a5 fe bd
       -0.0921318 -0.056054637 -0.3098612 -0.124339186
0001b0 92 02 43 3e 06 ad b9 3e bd 92 83 3e b4 c9 11 bd
       0.19043949 0.3626482 0.2569789 -0.03559275
0001c0 58 a4 06 be cd b0 00 be 2b 60 6b 3d 57 39 33 3e
       -0.1314863 -0.12567444 0.05746476 0.17502342
0001d0 64 2c 62 be f3 34 59 be 5a dd 84 be bd 36 c2 3d
       -0.22087246 -0.21211605 -0.25950128 0.09483097
0001e0 0a bb 74 be 52 5c 11 bd 3d 31 e7 3d 1a d3 08 3e
       -0.23899475 -0.035488434 0.11288688 0.13361779
0001f0 8f f6 2a be 8e c5 e8 bd 66 fe 92 3e d6 bd 53 be
       -0.16695617 -0.113658056 0.28709716 -0.20677885
000200 55 3b 22 be 4b 46 cd 3d f0 74 b9 bd 99 bf 25 3d
       -0.15842946 0.10023173 -0.09055507 0.040465925
000210 7e d8 90 be 42 a9 46 be 0a 6b 2c be 42 7d 98 3e
       -0.2829017 -0.19400504 -0.16837707 0.29783064
000220 00 bc 90 bd fd e7 93 be 73 c8 d8 3c 22 46 85 3e
       -0.07067108 -0.2888793 0.02646277 0.2603007
000230 bc 4c a4 3d 30 06 16 3e f0 f3 23 be 77 11 22 3e
       0.080224484 0.14650798 -0.16011024 0.15826975
000240 db 47 a8 bd 97 59 bd 3e 62 3e 18 be 29 21 f7 3d
       -0.0821683 0.36982414 -0.14867547 0.12066872
000250 41 7a 81 3d d8 1f ca bd 5b f8 fb bc c3 c1 a2 be
       0.06322146 -0.09869355 -0.030758074 -0.31788453
000260 c6 b6 96 3e 40 bb 35 be be f3 fd bc df 1b b2 bd
       0.2943632 -0.17747211 -0.031000014 -0.08696722
000270 2e 91 90 3e dd ce 80 be f3 65 ee bd 01 67 02 be
       0.28235763 -0.25157824 -0.11640539 -0.12734605
000280 63 1c 87 be 6d bc 97 3e 30 60 4e be 0d b8 14 be
       -0.26388845 0.29635945 -0.2015388 -0.14523335
000290 22 17 10 3d 1f fe ee 3d 04 dc 01 3e a1 e6 a6 3d
       0.03517831 0.116695635 0.12681586 0.08149458
0002a0 77 12 1e 3e 8d 84 1a be 09 32 21 bd c1 95 ed 3c
       0.15436731 -0.15089627 -0.039354358 0.029002072
0002b0 fd 64 da 3d 2c 3e 23 3e ff 7f 14 be 62 e7 19 be
       0.10663793 0.15941685 -0.14501952 -0.15029672
0002c0 3e d4 dd 3d 7e 41 e6 3d ea d6 82 3e 2e 63 aa 3e
       0.108314976 0.112429604 0.2555459 0.33278793
0002d0 b6 db 6f 3e 6e 2a 9e bd b3 4c 4a be f1 fd 98 bd
       0.23423657 -0.077229366 -0.19755821 -0.074703105
0002e0 ff cd ae bd a8 f5 2b be e3 13 96 be 18 54 08 be
       -0.085353844 -0.16792929 -0.29312047 -0.13313329
0002f0 be 79 8e 3e f0 3d 22 3c 3e 1f b5 3e 6a 88 c5 bc
       0.27827257 0.009902462 0.35375398 -0.024112899
000300 59 50 cf bd 0d f9 01 be 32 97 89 bd 59 c3 c8 bd
       -0.10122747 -0.12692662 -0.06718291 -0.098028846
000310 da ea 58 be fb 5e 40 3e d9 24 ee bd 68 e2 b1 bd
       -0.21183339 0.18786232 -0.11628122 -0.08685762
000320 88 89 76 3c 16 e0 0e 3e 16 1f a3 bd e1 fc a7 bd
       0.015047438 0.1395267 -0.079649135 -0.0820253
000330 16 51 c5 3d 7e e2 f3 3d 86 6d e7 bd 6d 85 13 be
       0.096346065 0.11908434 -0.11300187 -0.14406367
000340 61 1a 5d bd c2 1c 44 be 33 b7 7d bd ad 1f 32 be
       -0.053980235 -0.19151595 -0.06194229 -0.17394896
000350 fd 47 d0 bd 5c 3f 5b 3e 53 f4 3b 3e 78 ec 20 3c
       -0.10169981 0.21410888 0.18354921 0.009822004
000360 3e 55 0b 3e 13 0f 0e 3e ba a5 85 be 5a 09 22 3d
       0.13606736 0.13872938 -0.26103002 0.0395597
000370 78 1c 7f be 5f 06 c9 bd 2e 53 93 be b8 03 12 3e
       -0.24913204 -0.09815668 -0.287744 0.14259231
000380 15 71 ce bd 22 00 33 3e 95 d6 cb 3d 64 89 97 3d
       -0.100801624 0.1748052 0.09953038 0.07399252
000390 05 0e 4a be 6a 22 46 bd f4 5e ab bd 5c f4 93 3e
       -0.1973191 -0.048372664 -0.0836772 0.2889737
0003a0 9e 54 5a bb ae 0a 4d 3d f0 a5 39 3c 29 29 54 bd
       -0.0033314596 0.050059013 0.0113310665 -0.051797066
0003b0 c5 b4 83 bd ce d0 50 be c0 f2 9f be cc 72 97 bd
       -0.064309634 -0.20392153 -0.3123989 -0.07394943
0003c0 b9 ee 96 bc 33 a1 1d 3e 61 c9 88 bc 39 52 1b 3e
       -0.018424379 0.15393524 -0.016697587 0.15168084
0003d0 e8 a6 0f bd 54 c5 76 3e 32 3c 85 be 31 84 3a be
       -0.035071284 0.24098712 -0.26022488 -0.1821449
0003e0 1c fd 69 3e df c3 26 3d 96 d8 2b 3e 84 37 4f 3d
       0.2285046 0.04071414 0.1678184 0.050590053
0003f0 72 d5 93 be 1b 7f e1 bc 95 23 d1 bd 27 52 87 3e
       -0.28873783 -0.027526429 -0.10211865 0.26429865

linear2.weight f4 [3, 256]
000000 4a 42 05 be c6 0c a8 3d e1 7b d3 bc 3f c9 0b 3d
       -0.13013569 0.08205561 -0.025815906 0.03412747
000010 38 7c 10 bd 6e bf 58 bd c6 de 96 be d6 7b 63 3c
       -0.035274714 -0.052916937 -0.29466838 0.013884505
000020 68 eb 2c 3e 0a 28 24 be a5 90 04 be 3b c6 62 be
       0.16886675 -0.16030899 -0.12945803 -0.22145931
000030 75 84 89 3e 80 b5 98 3d 5f 89 54 be 43 2d 1c 3e
       0.2685887 0.074564934 -0.20755528 0.15251641
000040 90 8a f0 bd ca 53 4c 3e 91 d9 dc bd 96 9e 0c be
       -0.11745179 0.19953838 -0.10783685 -0.1373237
000050 b1 72 a8 3e ce af 57 be 30 10 10 3d 7b 22 51 be
       0.32900003 -0.21063158 0.035171688 -0.2042331
000060 8f e6 f2 be 90 c9 3d 3d db e0 80 3c 58 a6 18 be
       -0.47441527 0.046334803 0.01573222 -0.14907205
000070 23 82 02 be bd 66 5c be 99 4d 53 3d 73 0a 56 bc
       -0.12744956 -0.21523567 0.051587675 -0.013064015
000080 69 77 18 3c a9 3d 54 3e f1 7c 20 bc e0 ae 70 bd
       0.009305813 0.20726646 -0.009795413 -0.058760524
000090 95 9a 36 3e 14 8a d4 3d 36 ee 8c bd 31 fe a3 bc
       0.17832406 0.10377899 -0.06881373 -0.020018669
0000a0 ec 12 06 bf bf 5d a5 be 66 e9 13 be b4 da 44 3e
       -0.5237262 -0.32298085 -0.14444503 0.19224054
0000b0 00 7c b9 be 2e 09 3c 3e ac 44 31 3d a0 64 5c 3e
       -0.36227417 0.18362877 0.04327838 0.2152276
0000c0 50 43 42 3e 1d 1d ee 3d 19 05 68 3d d3 48 8f bd
       0.1897099 0.11626647 0.056645487 -0.06996312
0000d0 0a 82 0a be a0 44 9a 3d 57 e2 d7 3d d3 e6 9d bc
       -0.13526168 0.075326204 0.10541218 -0.019275105
0000e0 73 fe 90 bd a5 45 0f be cd a9 5d 3e de c9 f0 bd
       -0.07079782 -0.13991411 0.21646805 -0.11757253
0000f0 3a 7a 6c be 5a 76 39 3e f5 4f 8a bd e1 54 9b 3d
       -0.230935 0.18111554 -0.06753532 0.07584549
000100 6a 67 30 3d 9a 14 9d bb f4 a1 f8 bd 4a 63 da bd
       0.043067373 -0.0047937157 -0.12140265 -0.10663469
000110 37 36 88 3c ac bd b7 be 16 5b 92 be 08 31 94 be
       0.016627414 -0.35886896 -0.28585118 -0.28943658
000120 fe 16 f2 3d fa 53 91 bc 96 1c 15 bc a0 21 24 3e
       0.11820792 -0.017740238 -0.009101054 0.16028452
000130 de 08 09 be b2 73 f8 bd 40 c7 a7 bc 8f 4a a8 bd
       -0.13382289 -0.12131442 -0.020480752 -0.08217346
000140 9f 8b 2e 3e c1 2b 2e be d0 54 a6 3e bf 20 14 3e
       0.17045449 -0.17008878 0.32486582 0.14465617
000150 eb 46 87 be 32 e7 4d 3d 08 4c 9a bd 05 29 5f be
       -0.26421294 0.050269313 -0.07534033 -0.21792991
000160 3f 23 64 be 15 f9 01 be 87 a2 9c 3e d7 d8 95 be
       -0.2227907 -0.12692674 0.3059275 -0.29266998
000170 00 e7 50 bd f4 98 b7 3d c4 31 f2 bd 39 bd c8 bd
       -0.05100155 0.0896472 -0.11825898 -0.09801716
000180 25 ba d0 bd df 34 3d bc 62 42 6a 3d 7e 6d d1 bb
       -0.10191754 -0.01154825 0.057192214 -0.0063912263
000190 28 1d 15 be f6 e2 16 bd ed 59 02 bd c0 3f 03 bd
       -0.14561903 -0.03683754 -0.03182404 -0.03204322
0001a0 50 eb a5 3d 57 74 61 be c2 ea d6 3c 74 44 b0 bc
       0.08101523 -0.22017036 0.026234988 -0.021517016
0001b0 ab d6 98 3b 6b 1d 44 3c 97 21 72 3d 33 01 9f be
       0.0046642623 0.011969904 0.059114065 -0.31055602
0001c0 a6 96 c4 be fa cd 9d 3c d3 08 91 bd 9d 24 20 3e
       -0.38396186 0.019263256 -0.07081761 0.15638967
0001d0 f2 79 59 bb d6 3a b2 3c 22 ad 81 be 78 8b 41 bd
       -0.0033184257 0.02175657 -0.25327402 -0.04725215
0001e0 13 c3 49 bd c5 dc 49 be 82 3f ca bd b1 84 57 bd
       -0.049258303 -0.19713123 -0.098753944 -0.05261678
0001f0 25 cb 9a 3c dd 8b 2f 3e 98 72 0d 3e 2e 2f ad 3d
       0.018895695 0.17143197 0.13813245 0.084562644
000200 86 34 94 be c1 19 2f bd 5f bb ad bd 66 d3 13 3d
       -0.28946322 -0.04274917 -0.08483004 0.036090277
000210 67 14 2a be 9c b9 b3 be c1 68 03 bf d1 0d 8d 3c
       -0.16609345 -0.35102546 -0.51331717 0.017218502
000220 05 63 1c 3e cf 3f 0b 3d 5c 79 92 bc 22 57 05 be
       0.15272148 0.0339964 -0.017880134 -0.1302152
000230 1e e8 82 be 95 48 46 3e 79 2e 15 be a4 84 7f 3d
       -0.25567716 0.19363625 -0.14568509 0.062382355
000240 a4 a3 b7 bb 97 8e 59 3e 7c 56 68 bb d1 37 4b be
       -0.0056042243 0.212458 -0.003545194 -0.19845511
000250 62 a2 1c 3e 54 91 99 be d4 2e 7e be 81 fa d1 bc
       0.15296319 -0.2999369 -0.24822551 -0.025632145
000260 5c f9 b8 3d 71 fb 46 be f8 a8 c2 be 14 73 1c be
       0.090319365 -0.19431855 -0.38019538 -0.15278274
000270 8e f4 2a 3d 34 21 97 be f8 3e 7c bd c8 7d ee bd
       0.04173713 -0.2951752 -0.06158349 -0.116450846
000280 87 60 14 be eb a0 13 3e 95 8c 20 be d1 b6 cf bd
       -0.14489947 0.14416854 -0.15678628 -0.10142291
000290 08 26 fa 3d bc 87 d5 bd cb 38 33 3e b4 ae 16 bc
       0.12214285 -0.1042628 0.17502134 -0.009196926
0002a0 a1 54 f2 bd 2f d5 f8 be 2b 77 b3 3e 7a da 71 be
       -0.11832548 -0.48600146 0.35051855 -0.23618498
0002b0 2b 55 36 bd bb 78 55 bc 8e 1f c9 be 7b fe 9f bd
       -0.044514816 -0.013029273 -0.39281887 -0.0781221
0002c0 db ed 82 bd 49 de d1 3e 0e 4f a0 3d c4 f6 60 3e
       -0.063930236 0.40989903 0.078275785 0.21969134
0002d0 ba 13 20 3e 5a fe 3f bd 45 42 16 be b0 78 55 3d
       0.15632525 -0.046873428 -0.14673717 0.05211705
0002e0 89 07 8d be a1 ef 63 3d f9 02 d5 bd 21 35 e1 be
       -0.2754481 0.05564845 -0.104009576 -0.43985847
0002f0 a9 5e e5 3c f0 54 3f bd 6f 86 0d 3e 58 4e 93 be
       0.027999239 -0.046711862 0.13820814 -0.2877071
000300 6c 6d 4b 3d f8 49 cc 3c 8c d0 7c 3e 5d 49 51 be
       0.0496649 0.024937615 0.2468893 -0.20438142
000310 e2 4e 47 be 96 c9 de 3d 2e f4 98 be b8 50 12 bd
       -0.19463685 0.10878293 -0.29873794 -0.03572151
000320 df 57 a1 bc 77 be 81 3e d3 13 16 be 17 6b 1a be
       -0.01969522 0.25340626 -0.14656 -0.15079914
000330 e7 93 2e bd dc 94 50 be 31 fb 70 be 43 96 f7 bd
       -0.04262152 -0.20369285 -0.23533322 -0.12089207
000340 34 3b 0a 3e e4 20 44 3c 07 3b ea bd b8 35 18 3e
       0.13499147 0.011970732 -0.1143704 0.14864242
000350 52 74 eb 3d 90 ba 2f 3e e5 e1 43 bd 70 ef b3 be
       0.11496796 0.17161012 -0.04782285 -0.35143614
000360 07 73 b3 3e b0 4c b1 3d ae f4 48 bd 68 5c 8e be
       0.35048696 0.08657205 -0.04906147 -0.27804875
000370 2c 61 39 be 99 91 95 be f9 6e 3a 3e ca b4 05 3d
       -0.18103474 -0.29212645 0.18206395 0.032643117
000380 30 63 1a be f7 b2 dd 3d fc 7e 97 bd a9 de 42 3e
       -0.150769 0.108251505 -0.07397267 0.1903025
000390 a5 5f 32 3c a9 f3 9d 3d 1d e1 1f be a5 34 5c bd
       0.010887061 0.0771249 -0.15613218 -0.053761143
0003a0 e4 88 7a be 30 21 ad bd fa 80 d9 bb 12 08 f5 3b
       -0.24466282 -0.08453596 -0.0066376897 0.0074777687
0003b0 88 f0 4c 3e cb 29 fb 3d a0 ad 06 bd 5b 62 3b bd
       0.2001363 0.12263831 -0.032880425 -0.045748096
0003c0 d4 c8 a4 bd 8d 11 06 be db 71 2f be 30 6d dd bd
       -0.080461174 -0.13092633 -0.17133276 -0.108118415
0003d0 a0 94 2b bd c7 6b 79 bd 1b 7c e5 bb 6f 52 8b be
       -0.041889787 -0.0608938 -0.00700332 -0.2721133
0003e0 7c d4 c9 bc 97 86 d1 bd 33 d7 08 3e fc a4 82 3e
       -0.024637453 -0.10230749 0.13363342 0.25516498
0003f0 98 5c 0c 3d 3f c2 97 be 9c b5 eb be 0a ad 03 3e
       0.03426799 -0.29640386 -0.46036994 0.12858978

linear2.bias f4 [3]
000000 66 8b bc 3d e6 74 b6 bc 5b 29 ae bd
       0.09206276 -0.022272538 -0.08503982
